ctrader/Models/synapse.onnx (onnx, 180703 bytes, 8 tensors)

action_net.weight f4 [4, 64]
00000000: e7e1 28bc 0c25 aabd 2ac0 503d 405f 153d
00000010: 26a2 13be f264 5b3d 802e 88bb 87a5 813d
00000020: f921 5e3d 575b 683d bc51 e23c efb4 cdbd
00000030: 22ee ff3c 9f46 903d 7716 ab3c 272a ae3d
00000040: ff0c 26be 10d9 4abe b2ca 16be 7eea 15be
00000050: 1685 503d cb5b ad3b e4c7 533c 57a1 6f3d
00000060: 750b 1e3d 0519 6e3d 8550 81bc 956a 1bbe
00000070: 6dd0 1e3c b7d0 d1bd 2817 903d a627 3dbe
00000080: e4f7 6bbd d598 093d 6029 83bb 452f 8abd
00000090: 9957 14be 11e4 36bd c300 e53b 843a 2a3d
000000a0: 53d1 553d 0d99 063d cb4a 00bd 5da1 923c
000000b0: 9215 203d f8a9 8a3d e41a bfbd b4d6 f2bd
000000c0: 6710 17bd c553 7b3d 1fb1 1bbe ee2a 3cbe
000000d0: 1271 82bd 32fd 903c e1af 2dbe 03d2 2abe
000000e0: fd68 173d f1a5 54be e6ed a93c efd3 b13b
000000f0: 08e0 613d e89a 373d 8578 18be 8bcb 91bd
00000100: 434f 913c 9364 7d3d 9a23 113e a44b e6bd
00000110: 2d07 723e 8336 e1bd 3e9e 53be 8f71 fcbd
00000120: 020f 85bd e8c2 94bd b6af 17be 4187 063e
00000130: 6de5 b93c b740 393e 7ac8 a3bd 6304 b4bd
00000140: e24b 1c3e 8025 4d3c 4e8e e53d 4313 18be
00000150: 9275 b5bd 656d 7ebc e943 d5bc bcce ccbd
00000160: 38a3 063d 12f5 c0bd 4e5a 873c ed00 b13c
00000170: b0ac 7abd 38fe 21be 5cd0 ed3d 4cf3 7ebd
00000180: 6262 31be 5aae 1d3d 7e2b 4dbd 4fda 44bd
00000190: c7a3 fbbc 2ede 0b3e 4248 a0bc 5766 5e3e
000001a0: e79f 61bd a697 00bd 56f4 26bd f4d4 9b3d
000001b0: a2b1 aebd df9d 543d eb18 14be d742 f1bd
000001c0: 1947 d5bd 9078 fcbd 202c 2cbe aaba 273e
000001d0: d49c cfbc 935b 723b 63e4 47b9 dbec 63bd
000001e0: e4cb 7fbc 631b 983d 6d6b a4bd 3594 03be
000001f0: ee28 883d b3dd 973d 2848 ecbd 2dab b0bd
00000200: 55f6 12bd 6e08 9a3d c84b 2fbe 5300 84bd
00000210: 47bd f0bd ec3f 29bd 9532 933d a603 4bbd
00000220: 9acb c3bd a3f4 98bd 12a3 c83d 1d46 8e3d
00000230: 99ce 853d 3a38 85be c8ab 4dbc b360 203c
00000240: 7d8a 69bd 3dcd e03d 44a4 8abb 0817 613e
00000250: 0bfb 8cbd 501c a5bd b093 c63d 1911 33bd
00000260: b908 25bc e74a 8abd a458 063e 05cc 433e
00000270: 66ce 9f3d 71d6 623e 4c17 03bd c4d8 eb3d
00000280: 4219 053e 2e46 d1bd 134c f73c 7ff4 a83d
00000290: f77d 9d3d 9cd2 65bd 3114 003e 0ca1 7cbe
000002a0: db7e b3bd 8450 453d 6b19 2c3e c7d9 323d
000002b0: ead7 ab3c 700a 943c 51a9 393d 2bf7 703d
000002c0: e0f9 5a3c 42ae 5fbd c7ad e53d da7a 023e
000002d0: 8697 303e 7f02 d23d 3e51 f63d f6bc fa3d
000002e0: 9c37 3b3d 445d 5e3c 283c 6d3d 889c d93c
000002f0: 8ef0 723c c7b5 d13c d87c ed3d 705c 2a3e
00000300: 08c6 553d 7c0a ae3b a0e0 093c 30ec 9b3d
00000310: a5da 2d3d 013f 0f3d 14db f03d 1161 093d
00000320: 4ee2 433d 5dc8 433d bae8 f83b 6595 70bd
00000330: e8a6 d2bd f357 84bd 3c23 523d c624 08bd
00000340: 45bf 0b3e bfad 2a3e e482 f73d 1851 053e
00000350: c4dd 1d3d 5efc 4e3d 66fd a8bd 8269 db3c
00000360: 812b 83bd c8ee 403d 14f7 ebbd 2a13 afbc
00000370: dd57 5fbc 0071 fe3c 7171 7cbe 6587 203e
00000380: 589e ae3d d712 1ebc 405c 363d ef2d 573d
00000390: aabe e73d 6be8 33bd 3f36 29be f90e b8bd
000003a0: aadb 343d e1a6 2abd 2236 1abe f6e1 27be
000003b0: ebac c03c b1dc 44be cecc 2f3e 621b 333e
000003c0: 489a e53d 322c 713d 72b7 593e a8e5 adbc
000003d0: 0cc5 84bd 8c05 4bbe 9e12 d43d 87bd fc3d
000003e0: 07fa 4fbd 81fc 633e faf4 313c cf78 7e3d
000003f0: f215 4abe 6058 56be e953 323e 4000 873d
-0.010307766 -0.083078474 0.050964512 0.03646779 -0.14417323 0.053563066 -0.004155934 0.063304
0.054231618 0.056727733 0.027626865 -0.10044276 0.03124148 0.0704472 0.020884736 0.08504134
-0.16215895 -0.19809365 -0.1472576 -0.14640233 0.05090817 0.0052904836 0.012926076 0.058503475
0.038585145 0.05812933 -0.015785465 -0.15177377 0.009693247 -0.10244887 0.07035667 -0.18472156
-0.057609454 0.033593018 -0.004002735 -0.06747297 -0.14486541 -0.044651095 0.006988616 0.04155971
0.05220158 0.032860804 -0.031321328 0.01789921 0.03908307 0.067707 -0.09331301 -0.118573576
-0.036880877 0.061359186 -0.15204285 -0.18375751 -0.06369223 0.017698858 -0.16961624 -0.16681676
0.03696536 -0.20766427 0.020743322 0.005426876 0.055145293 0.044825464 -0.14889725 -0.07118901
0.01773799 0.061863493 0.14173737 -0.11244896 0.2363555 -0.109967254 -0.20665833 -0.12326347
-0.06497003 -0.07263738 -0.14813122 0.13137533 0.022692407 0.18091093 -0.07997222 -0.08789899
0.15263322 0.012521148 0.11208783 -0.14851098 -0.088603154 -0.015529011 -0.026033359 -0.10000369
0.0328705 -0.094217435 0.016522553 0.021606887 -0.061199844 -0.15819633 0.11612007 -0.062243745
-0.17322686 0.038496353 -0.050090306 -0.048059758 -0.030717744 0.13658974 -0.019565705 0.21718727
-0.055084135 -0.031394623 -0.04076036 0.07608977 -0.085299745 0.05190837 -0.1446263 -0.11780327
-0.104139514 -0.12327683 -0.16813707 0.163798 -0.025343336 0.0036980852 -0.000190632 -0.055645805
-0.015612576 0.074270986 -0.08028302 -0.12849505 0.06648432 0.07415333 -0.115372 -0.08626399
-0.03587945 0.07521139 -0.17118752 -0.06445374 -0.11754852 -0.041320726 0.07187382 -0.049564026
-0.09560318 -0.07468536 0.09796728 0.06946967 0.06533546 -0.2601946 -0.012553163 0.00978868
-0.05701684 0.10976646 -0.004231008 0.21981442 -0.0688382 -0.08062041 0.09696138 -0.043717477
-0.01007288 -0.06752568 0.13119751 0.19120796 0.07803039 0.22152115 -0.03200464 0.11515954
0.12997916 -0.10218464 0.030187642 0.08249759 0.076900415 -0.056109056 0.12507702 -0.2467081
-0.0876443 0.04817249 0.16806571 0.04366472 0.02097698 0.018071383 0.04532749 0.058829468
0.013365239 -0.054609545 0.11214786 0.12742177 0.17245302 0.10254382 0.120272145 0.12243073
0.04570733 0.013572041 0.057918698 0.026563898 0.0148278605 0.025599374 0.11596078 0.16636825
0.05219081 0.0053113084 0.008415371 0.076134086 0.042444844 0.034972195 0.11760536 0.033539835
0.047823243 0.047798503 0.0075961025 -0.058736224 -0.10285741 -0.064620875 0.051303133 -0.033238195
0.13647182 0.16667841 0.12085512 0.13019216 0.03854157 0.050533645 -0.08251457 0.026783708
-0.06404782 0.04710272 -0.11521736 -0.021371443 -0.013631788 0.031059742 -0.2465265 0.15676649
0.085262954 -0.009648046 0.04452157 0.05253404 0.11315663 -0.043922823 -0.165246 -0.08987231
0.0441548 -0.041663054 -0.15059713 -0.16394791 0.023519954 -0.19224812 0.1716797 0.17490914
0.112110674 0.05888004 0.21261385 -0.021227673 -0.06482896 -0.19826335 0.103551134 0.12340837
-0.050775554 0.22264291 0.01086163 0.06212693 -0.19734934 -0.2093215 0.17414822 0.065918446

action_net.bias f4 [4]
00000000: 1af4 043e 8eff 253d 59d0 9bbd 23ef e8bd
0.12983742 0.04052692 -0.076080985 -0.11373737

mlp_extractor.policy_net.0.weight f4 [256, 11]
00000000: 1d1d 0b3e 710f dfbe 6dc5 4ebc 6eb7 443e
00000010: 6b85 e3bd 41cd 27bd bd2c d8bd 1561 453d
00000020: d1b0 dcbd 2f5e 89be 4929 aebd 9e0e 1b3d
00000030: e1d4 5dbe a256 733e ee7d 2f3e 4b26 0ebe
00000040: 9b2f 43be eacc 0bbd fef9 213e ce6b a0bd
00000050: 7bd6 f43c f9dd cb3d a127 0dbe 8b6e d23e
00000060: e7f9 98bd 5d5e e53c 26b4 803d 4f39 383e
00000070: 0728 27be 5056 223e 1a9d 2e3e 67da b1bd
00000080: 4c52 bc3d c95a 04be ccd9 82bb 619b 0b3d
00000090: c221 d9bc 133d 073e d122 86bc 1ff9 24bd
000000a0: 8d6f 56be 7bc7 9c3e e0ce e3bd b539 5d3c
000000b0: 898d 15be 3159 593d 9332 563d fe19 b2bd
000000c0: 5ccd 08be 4363 afbd b6d3 893d 8573 65bd
000000d0: d516 a0be 327a dcbd c692 2e3d 68ee f5bc
000000e0: 2e72 a2be 97ba 1ebe 7248 823d 215f c93d
000000f0: c947 02be abf8 9fbd 8d24 87bd 147e a63d
00000100: 5b5c 473c fe78 e8bd f291 b03c 9fda 8fbe
00000110: 6fec 5f3e fcbb 163e ccab 8abc cd62 ab3d
00000120: d711 073e f83c b9bd a2af 973d 67a6 c5bd
00000130: 5420 3fbc 9aad 613d b48a 513d 3517 65bd
00000140: f813 0e3e 39f2 b2bd 064f 953e d600 15bd
00000150: 8ec3 9abd 39ac f03d 2db8 8e3e 6852 cebd
00000160: 201e 3e3e 9437 68be 6410 eebd 73fd 533e
00000170: 0ebf 803d 7d93 193d f77c f9bc 0afe 003e
00000180: 78bb 34be f12b 193e 9332 3bbe 1b49 d2bc
00000190: aace 9f3e 0ef5 f13c 068d dabd 5e5c 8dbd
000001a0: adcb 0bbe d254 6bbe 0ec0 81be 127a 4039
000001b0: 9d89 d8bd cb8b c43d 1a83 86bd eb93 c93d
000001c0: 0d4f a5bc 6534 17be fda1 3fbd e35d 37be
000001d0: 7963 5c3d e5e4 8b3e daf0 aa3e 59ca 52bd
000001e0: 1d61 b6be 5eb0 0a3d 811e 6a3e 1f8f 84be
000001f0: 33e1 dfbd ba9a d3bd ae10 aebc 68fb 81bd
00000200: 912a bebd 2930 0b3d d060 6fbe 26b2 c6bd
00000210: 95d9 ffbc e538 af3d 5794 56bd 9135 0ebd
00000220: 0082 a6bc c1c8 02be 74a9 43be 9c20 b63b
00000230: c67c 21be a5cf 463e 814f 373e a94a 0a3e
00000240: 666a 83be 6726 74be 9b83 003d 837f 25be
00000250: a809 24be 96eb 32be 8b32 363c 8ff3 20be
00000260: 88b8 46be 24c1 4b3e 0669 6abc 9e2b f7be
00000270: 0f52 093c f7af 8e3e 102f 9fbc db0d bebb
00000280: 56c6 30bd ed68 383e d8c9 1dbe b991 91bd
00000290: 24a6 c7be 4eb6 3a3d 3315 8a3e dabf 253d
000002a0: fc96 58be 942c 0ebd c2a4 50be 6978 31be
000002b0: c141 4abe 3fa1 8c3e 94fc 2fbe b070 8a3e
000002c0: 1be5 3abe e3bb 363e f79d c4bd 748f 093e
000002d0: c8b1 4fbe 05e7 1bbd feb3 93bd 6da7 09be
000002e0: 0793 3abd 589e 1a3e e82d d83c 1b9a 5cbc
000002f0: 9734 10be 7aa8 e4bb 7684 55bd f48a fdbc
00000300: 3ae4 453d e2a1 aabd 0028 a23d f8e9 9cbd
00000310: d6f9 97bb 0491 253e 3772 ac3d 43b4 87be
00000320: 0be4 a1bd 5182 26be 696f 373e 70c5 583d
00000330: 2af2 e83d ddd6 353b 6ee1 5ebe fe0c fabd
00000340: 8009 31be 2b60 fd3d 12d0 5d3e 089c 55be
00000350: 0905 7abe 2101 2d3d e60d d03d 37fe 5e3e
00000360: b4fa cfbd c255 2dbe e4fa 27be 2df9 4bbe
00000370: 8a6f 0cbd e7ff 5dbe c6d3 6fbe 0ffc 693e
00000380: 6fd9 833d e40d 11be b1bc 86be 88fb 013e
00000390: 3826 043d c115 5ebe 0002 563e 6c7e 40be
000003a0: 9593 23be fe93 9fbe 397e a1bb b3bf c43d
000003b0: 167a 18bd 0898 523d fe35 11be 859d 073e
000003c0: 2628 7a3e 79f0 eabd e486 4c3e 17cf 09bd
000003d0: e48b 73be 7f46 903d a9ce 953d 21b5 943d
000003e0: d7bd d1bc bef6 16be 9e60 9c3e c3a4 2b3d
000003f0: 5267 4dbe e5f1 593c 6ae5 10be 9c7c 443e
0.13585325 -0.43566468 -0.012620312 0.19210598 -0.11109432 -0.04096723 -0.10555408 0.048188288
-0.107759126 -0.2682967 -0.08503968 0.037855737 -0.21663238 0.23763517 0.17137882 -0.13881795
-0.19061129 -0.03413097 0.1581802 -0.07833062 0.029887429 0.09954447 -0.13784648 0.41099963
-0.0746954 0.027999097 0.062843606 0.17990611 -0.16323863 0.15853238 0.17052117 -0.08684235
0.091953844 -0.12925257 -0.0039932486 0.034083728 -0.026505355 0.13206892 -0.016374024 -0.040276643
-0.20940991 0.30620942 -0.11123443 0.013502528 -0.14604773 0.053063575 0.052294325 -0.08696364
-0.13359588 -0.085638545 0.06729834 -0.05601837 -0.3126742 -0.107654944 0.042620443 -0.030020908
-0.31727737 -0.15500866 0.06361474 0.098325975 -0.12722696 -0.078111015 -0.065987684 0.08129516
0.012168015 -0.113512024 0.021553967 -0.28096482 0.21867536 0.14720148 -0.016927622 0.08368454
0.13190399 -0.09044832 0.07406546 -0.09650879 -0.0116654225 0.0550972 0.05115767 -0.055930335
0.13874805 -0.087376066 0.29161853 -0.03637775 -0.0755683 0.11751599 0.2787489 -0.100743115
0.1856618 -0.22677451 -0.1162422 0.20702152 0.06286441 0.03749417 -0.030455096 0.12596908
-0.17649639 0.14958169 -0.18281011 -0.025669625 0.3121236 0.029535796 -0.10671429 -0.06902383
-0.13651915 -0.22981575 -0.2534184 0.00018356022 -0.10573123 0.09596976 -0.065679744 0.09842666
-0.020179296 -0.1476608 -0.046785343 -0.17906909 0.053805802 0.2732307 0.3338688 -0.051462505
-0.35620967 0.033859603 0.22863199 -0.25890443 -0.10931625 -0.10332246 -0.021248188 -0.0634678
-0.09285463 0.033981476 -0.23376775 -0.09701948 -0.03123168 0.08555774 -0.05238756 -0.034719054
-0.02032566 -0.12771894 -0.1910761 0.0055580866 -0.15770254 0.19415148 0.17901422 0.13505043
-0.25667113 -0.23842774 0.03137551 -0.16161923 -0.16019309 -0.17472681 0.011120449 -0.1571791
-0.1940633 0.19897896 -0.014307266 -0.48275465 0.008381381 0.27868626 -0.01943162 -0.0057999915
-0.043157898 0.18008776 -0.15409029 -0.071078725 -0.38993943 0.045584016 0.269693 0.040466167
-0.21151346 -0.03471048 -0.2037535 -0.17331089 -0.19751646 0.2746677 -0.17186195 0.270391
-0.1825146 0.1784511 -0.09600442 0.1343363 -0.20282662 -0.038062114 -0.07212065 -0.13442774
-0.045550372 0.15099466 0.026389077 -0.013464476 -0.14082561 -0.006978092 -0.052128278 -0.030950047
0.048313357 -0.08331658 0.07917786 -0.076618135 -0.004637937 0.161686 0.08420222 -0.26504716
-0.07904824 -0.1626065 0.17913593 0.052922666 0.11374314 0.0027746477 -0.21765682 -0.12209509
-0.1728878 0.12371858 0.21661404 -0.20860302 -0.24415983 0.042237405 0.10158901 0.21776663
-0.1015524 -0.16927245 -0.16404301 -0.19919272 -0.03428606 -0.2167965 -0.23420629 0.22850059
0.064379565 -0.14165455 -0.26315835 0.12693608 0.03226301 -0.21687986 0.208992 -0.18798226
-0.15974267 -0.31167597 -0.004928377 0.09606876 -0.037225805 0.05141452 -0.14180753 0.13243683
0.24429378 -0.11471648 0.19973332 -0.033644762 -0.23783833 0.07044696 0.07314808 0.0726111
-0.025603218 -0.14742562 0.30542463 0.041905176 -0.20058945 0.013302301 -0.14150015 0.1918816

mlp_extractor.policy_net.0.bias f4 [256]
00000000: 8959 963c b316 4fbd bf97 953d f1cf 283c
00000010: 4c49 c43d 99cf 97bc 18c6 3fbd c777 f83a
00000020: ae32 8f3c 0f18 47bb 51d0 013e 042d 443d
00000030: d8ec 38bd d4d6 88bb 570d 593d 42bb 8b3c
00000040: fe73 163d 3feb e0bd b7e8 ac3d 88d3 b93d
00000050: d4be 0d3c ac59 80bc 5c90 803d 6194 203c
00000060: bbaf 51bd e3a6 50bd db0b 95bd 9a96 a8bc
00000070: 201a c13d 91c9 70bd e711 df3d ba1c 503d
00000080: 8d21 e63d 2df8 bd3d 61e7 cf3d c2b2 9d3c
00000090: 1348 24bd 0868 183d 4c15 253d bd71 893d
000000a0: fcc9 bdbc 51f4 163c daec 9fbc 38c3 ceba
000000b0: 3b03 893d 1da3 143d 47c6 09bd 38f9 9a3d
000000c0: 1b31 513d 4fd8 44bd 9af5 83bc dfa0 dc3c
000000d0: 651d ce3d f278 adbc 486d 873c 111a 733c
000000e0: 0985 74bc e4df a43d 3b8f ebbc b59f 15bd
000000f0: daa0 06bd cc5a 99bc 2825 053e cc37 143d
00000100: 9508 d53d f3be 153d a176 19bd 86ee c5bd
00000110: b249 d93d a03d 54bc 6db9 cb3d 4a2f 913c
00000120: 6922 2c3d d6bd af3c 0b0e 87bc 0d3f 69bd
00000130: a57c 313d 83da b53d fef5 0cbd c404 baba
00000140: 5953 c0bc 9b05 933d e980 e3bb 1873 bc3d
00000150: 4c77 a63d e3c2 243d be28 903d ba9b e93b
00000160: 0b40 1dbd e5db 983d 4b1b 0a3e 73bf a6bc
00000170: 62ab 12ba fd0e e2bd 410f 0dbd 82cc 01bd
00000180: bb76 073d 789a acbd b5c6 9a3c e35c d5bc
00000190: 8068 623d 7f4b 57bd e8d0 29bd 4d16 9cbc
000001a0: b06d 873d 2bdc bbbc 5b1c 243d 075e 3fbd
000001b0: aa42 50bc 848a 06bd 8be2 863d 725c 62bd
000001c0: e5da c8bc 446a 16bd d9cf a13c f6fe b83d
000001d0: 9a68 5dbd 6b05 2e3d 05e8 f23c 9bd9 813b
000001e0: 636b 72bd e291 c23b db5f 02bd 42cb 983c
000001f0: 62cf f9ba ccbd ac3c 827c e5bb 1711 e23c
00000200: f6af 39bd ed93 e83b 37b8 aa3b ae47 ee3c
00000210: 6cb0 893d c8b6 65bd 6595 073d e531 f83c
00000220: bc53 8bbd 8847 953c c5a0 3c3d ac4a aebc
00000230: cf2d 8bbd f389 0bbd fbcc 733d 02c5 04bd
00000240: 467d cebc d656 65bd bfc8 55bd 2f11 443d
00000250: c3c2 80bd 8146 ad3d e596 02ba bedd b0bd
00000260: 17fa e6bc df0b e83d ae9c 703d 5499 0d3d
00000270: 4dbe 9c3d e85c 3e3d 2c8a d83c a329 f1bc
00000280: 9e9d 7cbd 8cb6 853c 7568 623d e811 be3a
00000290: 0b17 e7bc 25f0 b1bc dc0c 4d3d 939a f43b
000002a0: faea 4e3d 2145 1f3d 4fa0 1b3d cdeb 74bd
000002b0: 4f8c e43d f23f 203d 1bd3 9ebd 83ed 43bb
000002c0: 97e4 8f3d c2ce 9b3b d093 c4b9 27ea 8f3d
000002d0: ad20 04bd 81df 863d 9e91 9d3c 8ab9 a63d
000002e0: c403 5b3d 9f21 6b3c 37cd 1fbd ea08 5fbd
000002f0: b2fd c73b 7c9a ac3d b8bd 7b3b 9d29 a13d
00000300: 5b7c 193c c53c 0d3d c3e8 fabc a299 233d
00000310: 74e8 0a3d c032 d6bc 0a9b 2a3d aaa7 9e3d
00000320: fade b03b 954f 863d 11b2 d33d a484 b6bd
00000330: bf22 633d 55bb 62bd b1fb b2bd f357 a23d
00000340: 3f1f be3c ef22 dc3c 1693 4fbc 892c 153d
00000350: 2019 a2bd d7e1 b53d 9ff3 3b3c 722c 033b
00000360: cb42 17bb ba74 8e3d c7e6 853d 107d f13d
00000370: ac42 5cbd 226a c2bc a344 ecbc f6da 3abd
00000380: 0096 5e3c b594 0b3d a499 2d3e 1260 9b3d
00000390: 2c5c f03c 4f3b 653d 8020 443d 40d8 343d
000003a0: 7b2b e93d 8523 a23d 22cf b83d 908a 5cbb
000003b0: 580d edbd d282 16bd 665e b7ba 00a9 94bb
000003c0: ecfd a73c 5367 813d a582 6b3d 3174 e73b
000003d0: 96d8 94bb c2c9 3a3d 472b b63c 784a 2ebd
000003e0: 8d1f 283d 8a7c 1e3d 9caa 3fbd 562b 96bc
000003f0: d3ba 09bc 19af 183d 4afc 023d 8016 aebc
0.01835324 -0.050558757 0.07304334 0.010303483 0.09584293 -0.018531607 -0.046819776 0.0018956595
0.01748022 -0.003037933 0.12677123 0.047894493 -0.045147747 -0.004176 0.052991237 0.017057065
0.036731713 -0.1098237 0.08442824 0.090735495 0.008651454 -0.015667759 0.06277534 0.009801001
-0.05119298 -0.050940406 -0.07277652 -0.020579625 0.09428811 -0.05878598 0.108920865 0.050808646
0.11236868 0.092758514 0.10151554 0.019250277 -0.040107798 0.037208587 0.040303513 0.06711147
-0.023167603 0.009213523 -0.01952212 -0.0015774732 0.06690069 0.03628837 -0.033636358 0.07567066
0.05107222 -0.04805785 -0.016108323 0.026932178 0.100642 -0.021175835 0.016531602 0.014837758
-0.014924296 0.08050516 -0.028754821 -0.03652926 -0.032868244 -0.018720053 0.13002455 0.036186025
0.104020275 0.036559056 -0.03746665 -0.09664635 0.106097594 -0.012954146 0.099474765 0.017722744
0.042025004 0.021452826 -0.016486188 -0.056944896 0.04333176 0.088795684 -0.034414284 -0.0014192094
-0.023477243 0.071788035 -0.0069428575 0.0920164 0.08128223 0.04022492 0.07039021 0.0071291598
-0.038391154 0.074638166 0.13486974 -0.020354962 -0.0005594996 -0.11038015 -0.034438375 -0.031689174
0.033072215 -0.084279 0.018893579 -0.026045268 0.05527544 -0.052562233 -0.041458994 -0.019053603
0.06612718 -0.022932133 0.040066104 -0.04672053 -0.012711206 -0.032846943 0.065861784 -0.055263944
-0.02451844 -0.036722437 0.01975243 0.09033005 -0.054054834 0.042485636 0.029651651 0.003962708
-0.059184443 0.0059378007 -0.031829696 0.018651608 -0.0019058997 0.021086596 -0.007003368 0.02759604
-0.045333825 0.0070977123 0.0052099484 0.029086914 0.06723103 -0.056082517 0.033101458 0.030297229
-0.068030804 0.018222585 0.04605176 -0.02127584 -0.06795847 -0.034067106 0.059521656 -0.032414444
-0.02520622 -0.055991016 -0.0521934 0.04786795 -0.06287148 0.08460713 -0.00049815915 -0.08636044
-0.028195424 0.11330389 0.05874317 0.034570053 0.076534845 0.04647532 0.026433073 -0.0294388
-0.061673753 0.016322397 0.0552754 0.0014501186 -0.02820923 -0.021720955 0.05006109 0.0074647157
0.05051706 0.038884286 0.03799468 -0.05979519 0.11159574 0.039123483 -0.07755109 -0.0029896207
0.07026022 0.004754872 -0.00037494162 0.07027083 -0.032257725 0.06585599 0.019234475 0.081408575
0.053470388 0.014351278 -0.039014068 -0.05445186 0.006103241 0.08427903 0.0038412642 0.07869265
0.009368028 0.034481782 -0.030628568 0.039941438 0.03391309 -0.026147246 0.041651763 0.07746823
0.0053976746 0.06558148 0.10336698 -0.08912018 0.05545306 -0.055354435 -0.087394126 0.07926931
0.023208259 0.026872126 -0.012669345 0.036419425 -0.079149485 0.08880966 0.011471658 0.0020015505
-0.0023080583 0.069558576 0.06538158 0.11791432 -0.05377452 -0.023732249 -0.028841322 -0.045618974
0.0135855675 0.034077365 0.1695314 0.07586683 0.029340826 0.055964764 0.047882557 0.044151545
0.11385246 0.07916931 0.090238824 -0.0033651926 -0.11574811 -0.036745854 -0.0013989925 -0.004536748
0.020506822 0.06318536 0.05749764 0.0070634116 -0.0045424206 0.045602567 0.022237433 -0.042551488
0.041045714 0.03869299 -0.046793565 -0.018331211 -0.008406359 0.03727636 0.031978883 -0.021250963

mlp_extractor.policy_net.2.weight f4 [128, 256]
00000000: f65a f2bc a284 453e 4d75 81be ad9d 373d
00000010: ea4a c13d d198 8c3d 83c2 37bd ae67 07bc
00000020: 70f0 4b3e 2bbc 71bd ae3f 133e b951 a9bd
00000030: 1a9c 61bd d937 b2bd 2eae 6d3d 2b25 4dbe
00000040: b54e 913c fde7 a23d 1adf 31be 1517 86be
00000050: 8943 44be 876a c33d f1d8 5a3d 11c6 b0bd
00000060: 106d 143d 7cb0 763e 2f74 153c d0f7 bcbd
00000070: ce08 323c d2d4 c73c 0896 0a3d 41f7 28be
00000080: 990e 6e3e d4a2 7cbd a85b 6dbe 6c8f 9fbd
00000090: 70b3 a03d a19f 9f3d a817 fbbd ab82 cebd
000000a0: fa40 cbbd 1686 043d 262e 073e 4fb6 2dbe
000000b0: 0843 a0bd b81e 4bbe b494 19bb bbc5 f63c
000000c0: 731f 7fbc 2c63 973d d751 9f3d acac 413e
000000d0: af51 38be 1b2e e0bd 8f91 16be ad19 ea3d
000000e0: bd20 583e e09e 953b 565a 52bd 4c8f fd3d
000000f0: adf5 2b3d 6aa3 ea3d fe3c 33be 1c14 b2bd
00000100: a6d9 6e3b 3669 74be 307a 46bd 81aa a13e
00000110: 513e 00be c9b3 d7bd c8e4 23bd c779 0b3e
00000120: 722a a3bd d4c8 42be 1dd9 093e 8847 6a3c
00000130: 9359 e2bd 0037 11be 29f7 d7bd 5464 6a3e
00000140: 9ca3 a1bc a87a 93bd 4b4b bbbc de1e 4dbe
00000150: 4860 80be e69a 5a3d 4586 b5bd 8048 57bd
00000160: bb59 153e f9ff b03d 23c1 1f3d b108 0b3d
00000170: 91ba 15be 9068 7c3e 0601 e0bc d022 03bd
00000180: 9acc 3e3d 8c40 4ebb d781 073d 0e45 ecbd
00000190: c54b 08be f776 a73c 65f9 8a3e b1cb 783e
000001a0: 8b90 03be 136c 843e 6a79 1b3e 121c 46be
000001b0: 4145 bf3d 9c1f 5cbd f5e4 af3c 9427 003e
000001c0: d2b6 0f3d 053a 943d e638 833d 47e3 adbd
000001d0: 89f4 04bd 1557 d23d de54 0cbd bd2b a13d
000001e0: 66c1 46bd dce1 033e 6326 bcbd adef 9cbe
000001f0: 46df 5abc 1eca e63d 83ad 3bbb c668 5d3e
00000200: a39b acbd e69a 03be 2c98 93bc abef 35be
00000210: ccf1 c13b e3dd 3b3e eb57 063d 7fe1 eabd
00000220: 215b f3bd 8ca0 ba3d 741d 96be ed42 8b3d
00000230: 3c82 903e 7197 38bd 3606 473c d180 793d
00000240: b34c 05be 94d2 9e3d c924 753b c800 0fbd
00000250: 3559 b93d 8bf3 8f3d c69d e03d d1ae 3c3e
00000260: 6a57 84bc b08a dbbd cbae 0e3e edc2 e23c
00000270: 7222 1ebc 549e 673d 1807 fcbd 707e 6b3e
00000280: 8c73 e43c 2bdb 44bc 433c 443e fa39 973e
00000290: a8d8 53be 36bf 23bd 379d 3fbe 06ed 973c
000002a0: d21f 4fbe 2901 7fbb 3c57 f8bd 32c7 0a3e
000002b0: e1d2 8ebe 6d53 28be e98a 79bb ad24 663d
000002c0: 1172 cebc 30d4 2c3e 4877 283d b466 edbd
000002d0: 0937 65be b8c3 02bd 1282 c83d 6c3c 83bd
000002e0: 7231 edbd fbb6 ec3d 8e7e 32bc 80cf 293d
000002f0: e333 273d 200f b3be a315 be3d cd66 b43d
00000300: 90ba e03c f9d2 3ebe d187 bcbd 4174 84be
00000310: ccb4 ee3d a00a bfbd dd8b 633e c39c 05bd
00000320: 2219 693e 46b0 d53d 63fe d3bd 73c4 3dbd
00000330: 0c93 5f3e 9cf8 693e 8005 243e beba 183d
00000340: 3364 c3bd 4c6a fdbc 251e acbd 2d1a 123e
00000350: e21e 1e3d b2d1 27be 1226 4d3e 164d 513b
00000360: c022 d23c ec97 b9bd 720f cfbd af7f 22be
00000370: 2adb 29bd 5d7b 98bd 7463 cb3d 2a8a e1bd
00000380: 642e 06be c5be eaba 2933 463c 4f0d d3bd
00000390: f140 3abc ece5 0c3e c0be ecbc b421 98be
000003a0: 6667 2f3d a6ca 72be 4d4c 8a3d dc9b ea3d
000003b0: ba1f c53d 279a 3f3e 8565 cabd b80e 23be
000003c0: b666 d2bd 0eaa ad3d 93ba a33d 38a5 5d3e
000003d0: 7fb4 69be 1be6 913d 4d21 44be 7c62 013b
000003e0: c166 77be b377 6ebc e90e 213d a0fc 063e
000003f0: 6b33 41be 8a20 643c 55fc e13d a684 773d
-0.02958439 0.19288877 -0.25284806 0.044828106 0.09438117 0.06865085 -0.044863235 -0.008264465
0.19915938 -0.05901734 0.1437976 -0.082675405 -0.05508051 -0.08702058 0.05802744 -0.2003371
0.017737726 0.079544045 -0.17370263 -0.26189485 -0.19166388 0.09541803 0.053429548 -0.08631528
0.036236823 0.24090761 0.009121939 -0.09226954 0.010866357 0.024393473 0.033834487 -0.1650057
0.23247756 -0.061678723 -0.23179495 -0.077910274 0.07846725 0.07794119 -0.122603714 -0.10083517
-0.09924503 0.032354437 0.13201198 -0.16964076 -0.07825285 -0.19835937 -0.0023434581 0.030123582
-0.015571463 0.073919624 0.077792816 0.18913525 -0.1799991 -0.10946294 -0.14703964 0.114306785
0.21106239 0.0045660585 -0.051355682 0.12380847 0.04198234 0.1145695 -0.17503735 -0.08695242
0.0036445647 -0.2386826 -0.04845637 0.31575397 -0.12523772 -0.10532338 -0.040013105 0.13620673
-0.0796708 -0.19021922 0.13461728 0.014299281 -0.11052241 -0.14181137 -0.10545189 0.22889835
-0.019731335 -0.07201129 -0.02286305 -0.20031306 -0.25073457 0.05337038 -0.088635005 -0.052559376
0.1458501 0.08642573 0.03900255 0.033943836 -0.1462195 0.24649262 -0.027344238 -0.03201562
0.046581842 -0.0031471578 0.03308281 -0.11536609 -0.13310154 0.020442469 0.27143398 0.24296452
-0.12848108 0.25863704 0.15183035 -0.19346645 0.09339381 -0.053741083 0.02147148 0.12515098
0.03508646 0.07237629 0.06407337 -0.08490615 -0.03245977 0.10270516 -0.034260623 0.078696705
-0.048524283 0.12879127 -0.09187009 -0.30651608 -0.013358897 0.112690195 -0.0028637357 0.21621999
-0.08428123 -0.12852058 -0.018016897 -0.17767207 0.005918717 0.18346362 0.03279869 -0.11468791
-0.11882616 0.09112653 -0.29319346 0.067998745 0.2822436 -0.0450663 0.012147477 0.060913865
-0.1301754 0.07755008 0.003740596 -0.034912854 0.09050218 0.07028874 0.10967593 0.18426062
-0.016154964 -0.10719812 0.13933866 0.027680838 -0.009651767 0.056547478 -0.123060405 0.22997451
0.027887128 -0.012015144 0.19163613 0.2953642 -0.20688117 -0.039977275 -0.18712316 0.018545639
-0.20226982 -0.0038910604 -0.12126014 0.1355255 -0.27895263 -0.16438074 -0.0038077182 0.05618732
-0.025200875 0.16877818 0.04112938 -0.11591855 -0.22384275 -0.031924933 0.09790434 -0.06408009
-0.115816966 0.11558338 -0.010894431 0.041457653 0.040820967 -0.34972477 0.092814706 0.0880867
0.02743271 -0.18635167 -0.092055924 -0.25869945 0.11655578 -0.093281984 0.22221322 -0.032620203
0.22763494 0.10434012 -0.10351255 -0.046329927 0.21833438 0.22848743 0.16017723 0.037287466
-0.09540596 -0.030934475 -0.08404187 0.14267798 0.03860367 -0.16388586 0.20034054 0.0031936816
0.025651336 -0.0906218 -0.10110368 -0.1586902 -0.041468777 -0.07445405 0.099310786 -0.11012681
-0.13103634 -0.0017909637 0.0120971585 -0.10305273 -0.011368022 0.13759583 -0.02889955 -0.29713213
0.042823218 -0.23710117 0.067528345 0.11455509 0.09625192 0.18711148 -0.098826446 -0.15923584
-0.10273497 0.08479701 0.079945706 0.21645057 -0.2282276 0.07123967 -0.19153328 0.001974254
-0.24160291 -0.014554906 0.03932086 0.13182306 -0.1886727 0.013923774 0.11034457 0.060429238

mlp_extractor.policy_net.2.bias f4 [128]
00000000: 1a84 40bd 0fee 613d 12ba 853d e7b5 84bd
00000010: ff16 9b3c 3cdd 65be c2bf 75bd ac2c 32bd
00000020: 9e0e 7c3d c9be 14be aecc b43d 9473 023d
00000030: c0b6 973d 00fd 343d 3c3a 8ebc bfee 8e3c
00000040: b6f8 453d ac61 25be 300c 3c3d b019 f7bc
00000050: ad31 d8bc ff0d d93d 652c f23d cfd7 123e
00000060: 0c58 8aba 5f2d 9b3c 9995 61bd 9756 06bd
00000070: 56d5 b7bd 0ace ae3d 91a9 2c3d 65ae 22bd
00000080: 559d abbd e9a0 a6bd fc4a 343a 8e33 d23d
00000090: a8c1 f3bb 1132 96bd 9ad9 003b bc41 883c
000000a0: ff4c e93d e868 24be 8bb2 18bd 6b10 c9bd
000000b0: 329e ad3d fd9f ac3d cefb 933d 501a 653d
000000c0: 56ee 3d3d 9be5 96bd adac 893c 4382 4abd
000000d0: bf1b d8bc 2bb9 f03d 992a 283d 033c 903d
000000e0: 4671 4cb9 265e 85bd f248 08bd 3f60 403d
000000f0: 3cd5 8abd 6722 73bc 1ae0 f0bb 6dd9 923d
00000100: 32b0 ab3d d793 fc3c 2b90 95bd 9934 3c3d
00000110: 0264 93bd b95c 01be a1f3 8bbd 0186 1fbe
00000120: e210 ab3d 6484 abbd fea9 5abd ee82 823d
00000130: aae6 f93c 6260 a4bc 5a95 ff3c 64e5 6d3b
00000140: ede0 9cbc 2507 bb3d df97 1ebe 58f4 8bbd
00000150: 1b26 e03d d64e c6bc 7901 60be 90e6 37be
00000160: 7487 253d f3f8 a43d 2507 bd3d f823 4cbe
00000170: 7070 93bd 1427 cdbd c150 a3bd 862f 64be
00000180: f13e 683c a4ce 58bd 837c 17be 5cf7 e23c
00000190: b503 ee3c 8524 bf3b 04c0 193e 7da0 66bd
000001a0: 1b35 91bd c2ab b3bc 64e6 edbc 5849 c6bd
000001b0: ef2c 75bc 641c a6bc 061b 753d d2b4 14be
000001c0: f950 95bd b43d a9bd 6b06 223d 0db1 153d
000001d0: 6ac2 7e3d fe75 f03d 6ed2 1c3d b731 4e3d
000001e0: b80d d0bc 4ea0 993d 51f4 49bd ba62 8cbc
000001f0: d845 88bd 471f 873d 53e0 ee3d 92ae 17be
-0.047000982 0.05515867 0.06529631 -0.064800076 0.018931864 -0.22447675 -0.059997328 -0.043499634
0.061537378 -0.14525904 0.08828102 0.031848505 0.07407904 0.044186592 -0.017361753 0.017447827
0.048332892 -0.1615054 0.04591006 -0.030163616 -0.026390875 0.10598373 0.11824874 0.14340137
-0.0010554804 0.018942533 -0.055074308 -0.032797422 -0.089762375 0.085353926 0.0421539 -0.039717097
-0.08379618 -0.0813616 0.00068776286 0.102637395 -0.007438857 -0.07333768 0.001966095 0.016632907
0.11391639 -0.16055644 -0.037279647 -0.098175846 0.08477439 0.08428953 0.07225762 0.055933297
0.046369873 -0.073680125 0.016805971 -0.049440634 -0.026380418 0.11754068 0.04105625 0.07042696
-0.00019497154 -0.06512098 -0.03327269 0.046966787 -0.067789525 -0.014839745 -0.0073509337 0.07170377
0.08383216 0.030832214 -0.073028885 0.0459486 -0.07196809 -0.12633027 -0.06833578 -0.15578462
0.083528295 -0.08374861 -0.053384773 0.06372629 0.030505497 -0.02006549 0.031199146 0.0036300058
-0.019150222 0.09132222 -0.15487622 -0.06833714 0.10944768 -0.024207514 -0.21875562 -0.17959046
0.04041238 0.08055296 0.09229878 -0.19935596 -0.0719918 -0.10017219 -0.07974387 -0.22283754
0.014175163 -0.052931443 -0.14793591 0.02770584 0.029054502 0.005833211 0.15014654 -0.056305397
-0.07090207 -0.021932486 -0.029040523 -0.09681958 -0.014964326 -0.02027721 0.059840225 -0.14522102
-0.07290835 -0.08263722 0.039556902 0.036545802 0.062197126 0.11741255 0.03828662 0.05034038
-0.025397167 0.07501279 -0.049305264 -0.01713692 -0.06653947 0.065977626 0.1166388 -0.14812687

mlp_extractor.policy_net.4.weight f4 [64, 128]
00000000: 8c4e db3d 7a4c aa3d 6101 25be b6d3 483d
00000010: b5cc f63d 1efb 45bd 0be7 033c e6f3 fc3d
00000020: 5be6 053e 9280 92bd 2a8a 123e 42e6 90bc
00000030: c398 143d b1bc 09bd fc85 f5bc 4c77 00be
00000040: db58 54be 52b2 14be e69a de3c 244d 03bf
00000050: cc0a 62be bb44 203d 7f16 c33d 81c7 9abe
00000060: 086a a63d bfd2 e33d 9057 693e af4d a23d
00000070: 6064 2e3d c48c 8e3c ac8a 24bd 5220 da3d
00000080: 196b 743d db40 78bb 1d87 2c3e 65ec 383d
00000090: 62e6 dfbd 71ad 8cbe 6bd7 3c3e 1d37 0bbe
000000a0: 65f9 853d f26d dcbd 8322 5e3e df1c e83c
000000b0: 8840 a4bc aeb5 483e cf19 65be b87c cfbd
000000c0: 86da 41be 9fae 173d 02bb 153e 376e cebb
000000d0: 5145 013d 6a35 f03d 4112 e0bc b989 eabd
000000e0: 460d 77bd 01f2 aa3d cf91 6b3d bca2 9c3d
000000f0: da69 d23d 0740 983d fca3 a13d b583 3f3e
00000100: a4ea e33d db8b 253c 26bb 39be 0ea6 90ba
00000110: 7be2 bfbe c2ba 5c3d fad9 ffbc fadc b6bc
00000120: dcbf 8bbd 54f9 4dbd 472e a1bd 7276 863e
00000130: 62bf 043e 6b3b bb3d e086 313d 9fb6 91be
00000140: e92e 273e bb32 12be f43f 8d3c a087 353d
00000150: 5c4a 4dbc f2a8 df3d 9a75 203e 675a 223e
00000160: d8d3 683d 81dc 223c c437 a33d b90a 543e
00000170: 0803 1c3d a656 d33d d160 d63d 151f 5ebd
00000180: 3719 f53d 5374 49be 9155 423e 9f48 77be
00000190: 3e0b bcbd 9cf9 d0bd 72a2 bdbc 4ef4 1e3d
000001a0: dc04 c33d c14f 0b3e 0f6e 803d 0bab fe3d
000001b0: 177c 91be b630 b53d d04e ac3d 05c0 d93c
000001c0: ea36 3dbe ec98 37bd c1f6 abbe b7f4 c93d
000001d0: bd92 893d 3de2 e8bd 322e 3cbe ca77 c6bd
000001e0: f56f 983e 88c7 253e 6647 b83c d360 263e
000001f0: be50 fabd 4346 72be c0de c63d c6dd b13c
00000200: 154a 5b3e cfbd 283e e7af e13d 82f8 893e
00000210: 9373 01bd 05d0 04bd 82b9 c13e 5089 8dbd
00000220: 6db6 f63d 3b3d a93e 29cb 11be 39d0 ddbc
00000230: 4461 803c e776 a93e ad32 2dbe 98e8 7a3e
00000240: 4ac0 ad3d c9e5 f63d 3428 36be 323b 9d3e
00000250: 0e6e 1f3d 9420 47bc 9aa0 b0be a19a a6be
00000260: 6ef6 43bd 0896 0bbf d026 093e 4005 0c3e
00000270: ac2f b2bd cf4b 7a3d e35f 433e 15f3 40be
00000280: a825 8c3c 55d1 493d 977b 44bd d662 9e3d
00000290: cb75 ccbd b080 3dbe 07ca b03d 13aa 823d
000002a0: a98b f5bd 1025 9abc 5ff5 123e 28c4 0abd
000002b0: a602 c23d 045e 3e3c 6e18 553e 0dc6 ddbd
000002c0: 3d13 d63c 762b 13be 0b76 54bc df4d abbb
000002d0: 9349 023e 0d8a 9f3d 0236 08be d000 96bc
000002e0: 96c3 5d3d f06e ce3c c742 2dbd 59c3 07bd
000002f0: 8968 5a3e cff8 a8bd 0d72 493d 8144 5d3d
00000300: cc49 263e 789c 48bd add3 9d3e 0f95 463e
00000310: e87c 6ebe d209 1d3e e9c1 0fbe 0679 413e
00000320: 03e3 47be a768 e33d 95a9 f3bd b1fb 8ebe
00000330: 52bf 563e 4114 ef3d 8407 6abd 0226 d8bd
00000340: aa10 f7bb 46c6 ca3d b8c3 013d d941 893d
00000350: 3ac8 26bd 5ab4 4d3c e57c 92bc 352e 8abd
00000360: dcb9 a9bd da6b 7fbd 127b 80bc c7a6 4bbd
00000370: e657 56bc 7996 3e3e 5de0 ad3d 914a 5a3d
00000380: c0b2 223e 068b 48be 2305 0fbe 7f7c 69bd
00000390: 5f1b f33d 15e0 10bd 2bdb 04be b63e 0cbe
000003a0: a416 ba3c 6774 b8bd f53d 41bc 7353 253e
000003b0: 8cda c5bd c302 aabd 7b4e bbbe dbd2 9b3d
000003c0: 5518 6d3c d1f4 d7bb 8afb a4be 248b 44be
000003d0: bcfb 1a3e f832 3ebe b9df aebd 5c02 763e
000003e0: e3b1 f0bc d0c6 a33d fff0 b3bd 10db 8a3e
000003f0: 0d85 523e e06e 02bd 7026 a5bd 02f5 183e
0.10708341 0.08315368 -0.16113807 0.04903003 0.120507635 -0.048335187 0.00805069 0.123512074
0.13076155 -0.07153429 0.14310518 -0.01768792 0.036278497 -0.033627216 -0.029971115 -0.12545508
-0.2073702 -0.14521149 0.02717347 -0.5128958 -0.22074431 0.039128046 0.09525775 -0.30230334
0.081256926 0.11124181 0.22787309 0.07924973 0.042576194 0.017401107 -0.04017131 0.10650696
0.05967245 -0.0037880454 0.16848417 0.04514732 -0.10932614 -0.27476075 0.1844155 -0.13595243
0.06541709 -0.10763158 0.21692853 0.02833408 -0.020050302 0.19600555 -0.22373126 -0.1013121
-0.18931016 0.037031766 0.14622119 -0.0062997597 0.031560246 0.11728938 -0.027352454 -0.1145205
-0.060315393 0.0834694 0.0575121 0.076482266 0.10274096 0.07434087 0.07892606 0.18702586
0.111287385 0.010104145 -0.18137798 -0.0011035816 -0.37477478 0.053889044 -0.031231869 -0.022322167
-0.06823704 -0.050286606 -0.07870155 0.26262242 0.12963632 0.091421925 0.043341517 -0.2845964
0.16326489 -0.14277165 0.01724241 0.044318795 -0.012529936 0.10920896 0.15669861 0.15854798
0.056842655 0.009940268 0.07969621 0.20707215 0.03808883 0.10319261 0.10467685 -0.05422886
0.119677 -0.1967328 0.18977953 -0.24148796 -0.09181832 -0.10203859 -0.023148749 0.038807206
0.09522411 0.13604642 0.06270992 0.124349676 -0.28414986 0.088471815 0.0841347 0.02658082
-0.1847798 -0.044823572 -0.33586696 0.09861129 0.06717441 -0.113712765 -0.18376997 -0.09690817
0.29772916 0.16189396 0.022494983 0.16247873 -0.122224316 -0.23659615 0.09710455 0.021712195
0.21414979 0.16478656 0.11019879 0.2694741 -0.03160436 -0.032424945 0.37836844 -0.06910956
0.12046514 0.33054528 -0.14237656 -0.027076827 0.01567138 0.33098528 -0.16913863 0.2450279
0.08483942 0.12055547 -0.17788774 0.30709225 0.038923316 -0.012153763 -0.3449753 -0.32539847
-0.047842436 -0.54525805 0.13393712 0.13673878 -0.08700499 0.061107453 0.19079547 -0.18842728
0.0171078 0.0492719 -0.047969427 0.07733695 -0.09983405 -0.18506122 0.08632284 0.06380095
-0.11989529 -0.0188165 0.14351414 -0.033878475 0.094731614 0.011619095 0.208101 -0.10828791
0.02613222 -0.14372048 -0.012967597 -0.005227789 0.12723379 0.07790003 -0.13301852 -0.018310934
0.054141603 0.025199383 -0.042300012 -0.033145282 0.2132894 -0.082505815 0.049181033 0.05402041
0.16239089 -0.048977345 0.30825558 0.19392799 -0.23289835 0.15335777 -0.14038815 0.18893823
-0.19520192 0.11103945 -0.118975796 -0.279264 0.2097142 0.11673785 -0.057136074 -0.105541244
-0.0075398283 0.09901099 0.031680793 0.067020126 -0.040718295 0.012555206 -0.01788182 -0.067470945
-0.08287403 -0.062358715 -0.015683684 -0.0497196 -0.01308248 0.18612088 0.084900595 0.05329377
0.158885 -0.19584283 -0.13966803 -0.057003494 0.11870455 -0.03536995 -0.12974231 -0.13695797
0.022715874 -0.09006577 -0.011794557 0.16145115 -0.09660825 -0.08301308 -0.36583313 0.07608577
0.014471133 -0.0065904637 -0.3222316 -0.19193703 0.15135092 -0.1857413 -0.085387655 0.24024338
-0.029381698 0.07996905 -0.08786201 0.27120256 0.20558567 -0.03184402 -0.08063972 0.14937213

mlp_extractor.policy_net.4.bias f4 [64]
00000000: 0c7f 8dbb 5832 76bd 4aa8 78bc 76d6 78bd
00000010: ee1e 5abc 1651 2fbd 4e85 00be 9c29 50bd
00000020: a034 f0bb 2a7a 76bc b9ac 103c 97a1 2fbb
00000030: d4c7 a73d 2dc3 fe3d 4bb4 04bd a632 e1bc
00000040: a0ef 90bc 0c9c 2bbd ed57 e5bd 0dcc 28bd
00000050: 68e7 b8bd 55e2 e7bd a3ab a03c cd74 58bd
00000060: de26 d83d d84c eebc 3bee 953d e3d5 873d
00000070: 64c8 ffbd 3042 9dbd db7f dd3d 9bdf 99bd
00000080: 28e2 e0bd 6afb c63d b1ed 70bd 3601 4c3d
00000090: a7b7 72bd f759 31ba aef0 ee3c b3bc d53d
000000a0: ba56 293c 141b 903d 14e9 a33b 56ed fb3d
000000b0: a7dd 95bc e80b a03d 7217 e6bd acab c8bd
000000c0: cc6d f7bd 2823 aabb 52d4 03be 6778 db3d
000000d0: 1ddc 063d 0a6a c83d bb78 c6bd 9ec8 36bd
000000e0: e618 5c3d 40d7 23be 0d4d a13c dbb3 abbd
000000f0: 00c1 113e d21d ad3d d133 abbd d1fe 81bd
-0.0043181237 -0.060106605 -0.015176842 -0.0607514 -0.013313038 -0.04280194 -0.12550852 -0.05082093
-0.007330492 -0.015043775 0.008830243 -0.0026799196 0.08192411 0.124395706 -0.032398503 -0.027489971
-0.017692387 -0.041896865 -0.11198411 -0.041210223 -0.09028512 -0.11322466 0.019613093 -0.052845765
0.10554288 -0.029089376 0.073208295 0.066325925 -0.12489393 -0.0767864 0.10815402 -0.075133525
-0.10980636 0.09715922 -0.05882043 0.049805842 -0.059257176 -0.000676542 0.0291675 0.10436382
0.010335619 0.07036415 0.0050021503 0.123011276 -0.018294169 0.07814771 -0.112349406 -0.09798369
-0.12081489 -0.0051921792 -0.12873963 0.10716324 0.03292476 0.0978585 -0.09690996 -0.044624917
0.053734683 -0.1600008 0.019690061 -0.08383914 0.1423378 0.084529534 -0.083594926 -0.063474305
